project/model/model.pth (torch, 17216 bytes, 4 tensors)

linear1.weight f4 [256, 11]
0.17662282 -0.11442663 -0.14834645 0.10428424 -0.10507396 -0.27182138 0.17095192 0.0489385
-0.22885688 0.19547924 -0.24213384 0.16434985 0.0012922615 -0.1869978 0.13670051 0.14040972
0.010829841 -0.053415373 0.04573543 0.17625482 -0.114871375 0.041597173 0.13434081 -0.20681742
-0.06943263 -0.24378888 -0.23242295 0.2071364 0.07056091 -0.22649024 0.22452928 -0.20743586
0.24538964 0.1319792 0.17932795 -0.08492933 -0.17154774 0.16960023 -0.25104675 0.25513518
-0.15755376 0.035135586 0.1905508 -0.14176601 -0.27716878 0.0729627 -0.2528375 0.106940724
-0.33846536 0.06181968 -0.17488275 -0.26373562 0.20693439 0.013821182 -0.3177248 0.21576616
-0.1278321 0.18087092 0.005291656 -0.1303346 -0.03216245 -0.23301475 -0.010814219 -0.014199266
0.19682647 0.22054633 0.25457183 -0.25900203 -0.051905353 0.09345427 -0.19955894 -0.18945725
-0.061141554 -0.15900314 0.15763177 0.27916515 0.043621164 -0.010865223 -0.24601024 -0.18218875
-0.30075794 0.13660783 -0.21313977 0.12599494 -0.0010940423 -0.24326245 0.009209393 -0.15353417
0.26406237 0.2670292 -0.27448928 -0.21546635 -0.29439938 -0.005936998 0.13303941 -0.2838799
-0.21728274 0.09885131 -0.1946016 0.17562515 -0.026179964 -0.24307008 0.24375345 -0.15352766
-0.2080758 -0.069836944 0.18461402 0.070726454 -0.24276887 0.15844828 -0.3188698 -0.002471061
-0.08008701 0.08955656 -0.24691641 8.88874e-05 -0.19178969 -0.0033155845 0.21652289 -0.2595472
0.17527486 0.06924114 0.0059239944 0.28790668 0.3247956 -0.2879006 0.06233478 -0.28691524
0.28958794 -0.20333676 0.12868668 -0.0772192 -0.26058152 -0.014103903 0.29423687 -0.079319246
-0.06820298 -0.32916123 -0.16942891 -0.22944994 0.26943085 0.26976332 0.2122531 -0.04185914
0.2601306 -0.2672592 0.16622606 -0.12726752 0.042742502 0.044555865 -0.0488247 -0.2119241
-0.2403739 -0.2498074 -0.15427083 -0.03335139 -0.06362428 0.030664733 -0.19751196 -0.13196844
-0.046980992 -0.20639016 0.1694443 -0.22417063 -0.19560882 0.22928369 -0.099987656 0.25134045
-0.026491195 -0.08371958 0.02319118 -0.020291623 0.25525162 0.30542994 0.047098033 0.20864758
-0.25572452 -0.15681396 0.17456716 -0.059146285 -0.29554754 -0.14244992 -0.08951967 0.27263132
-0.18300807 -0.1424129 0.11045223 0.22718614 0.24854803 -0.07050806 0.11514506 0.14585856
0.05611932 0.18896468 0.158957 -0.26639572 -0.0695471 -0.24515423 0.056646872 0.114990994
-0.05392624 -0.17535567 -0.19730522 0.11653483 0.18574561 0.33196002 -0.18620367 0.23681585
0.10895933 -0.008271242 -0.2720658 -0.2620364 -0.26933905 -0.12076876 0.2692874 0.29653198
0.0814709 0.27356926 -0.059550114 -0.017849525 -0.22331141 0.12825781 -0.1297436 -0.065132484
0.04887506 0.24545662 -0.3132156 -0.008524889 0.21308582 -0.14659522 0.23501182 -0.24035601
-0.21798195 0.29130217 -0.27381164 -0.046246786 0.13606282 0.14807983 -0.0068516093 0.21009777
0.18085626 0.30146492 -0.006168672 -0.19779621 -0.025392435 -0.022189574 0.19311096 -0.16937499
0.24355309 -0.12136915 0.2310216 -0.013559487 0.10376565 -0.24869882 0.21108842 -0.16925292
00000000: 9ddc 343e 8258 eabd 22e8 17be fa92 d53d
00000010: 0431 d7bd 2c2c 8bbe 050e 2f3e bd73 483d
00000020: 7559 6abe b62b 483e eff1 77be 544b 283e
00000030: 1a61 a93a 5a7c 3fbe 38fb 0b3e 91c7 0f3e
00000040: a56f 313c 14ca 5abd 1355 3b3d 257c 343e
00000050: af41 ebbd cc61 2a3d a390 093e f2c7 53be
00000060: b232 8ebd cba3 79be 4800 6ebe 901b 543e
00000070: 3d82 903d 0fed 67be 01eb 653e 116a 54be
00000080: 6c47 7b3e 8e25 073e bfa1 373e 6eef adbd
00000090: 36aa 2fbe afab 2d3e 3389 80be 14a1 823e
000000a0: c655 21be 55ea 0f3d c01f 433e 1c2b 11be
000000b0: 11e9 8dbe 786d 953d eb73 81be bd03 db3d
000000c0: 554b adbe a236 7d3d 7714 33be 5b08 87be
000000d0: 9ce6 533e 3d72 623c d3ac a2be cef1 5c3e
000000e0: 6be6 02be 3a36 393e a165 ad3b 6f76 05be
000000f0: c6bc 03bd 6b9b 6ebe 1f2e 31bc 0aa4 68bc
00000100: e18c 493e e6d6 613e 3d57 823e ea9b 84be
00000110: b59a 54bd f464 bf3d 2e59 4cbe 1501 42be
00000120: 916f 7abd b8d1 22be 396a 213e bcee 8e3e
00000130: 1bac 323d 0c04 32bc 1cea 7bbe b08f 3abe
00000140: f2fc 99be ece2 0b3e 5041 5abe d104 013e
00000150: f865 8fba cb19 79be fee2 163c 1038 1dbe
00000160: 2f33 873e 0db8 883e dc89 8cbe 36a3 5cbe
00000170: 84bb 96be 268b c2bb 7c3b 083e b558 91be
00000180: 5e7f 5ebe 8e72 ca3d a445 47be 14d7 333e
00000190: 5d77 d6bc 5de7 78be 819a 793e 5b36 1dbe
000001a0: d311 55be ac06 8fbd 750b 3d3e 08d9 903d
000001b0: 6798 78be 4440 223e e742 a3be 86f1 21bb
000001c0: a904 a4bd 6e69 b73d a8d7 7cbe 0f69 ba38
000001d0: 8464 44be 474a 59bb 2db8 5d3e 5fe3 84be
000001e0: 417b 333e 4cce 8d3d 111e c23b 8168 933e
000001f0: 9c4b a63e b567 93be c152 7f3d 8ee6 92be
00000200: df44 943e 8337 50be 71c6 033e 1a25 9ebd
00000210: f16a 85be 0f14 67bc 37a6 963e 2172 a2bd
00000220: 01ae 8bbd d287 a8be c67e 2dbe edf4 6abe
00000230: d7f2 893e 6b1e 8a3e e058 593e 7d74 2bbd
00000240: d72f 853e 33d6 88be 2a37 2a3e 6b52 02be
00000250: c312 2f3d 3680 363d 69fc 47bd a202 59be
00000260: 9324 76be 83cd 7fbe 2cf9 1dbe 789b 08bd
00000270: 724d 82bd 9b34 fb3c 9340 4abe bc22 07be
00000280: 246f 40bd f157 53be ce82 2d3e fc8c 65be
00000290: ae4d 48be 58c9 6a3e 54c6 ccbd b2af 803e
000002a0: 1004 d9bc 2c75 abbd 6efb bd3c 9e3a a6bc
000002b0: 57b0 823e 5061 9c3e dee9 403d b6a7 553e
000002c0: 53ee 82be d793 20be bcc1 323e 6043 72bd
000002d0: 0252 97be 64de 11be 1756 b7bd 5596 8b3e
000002e0: 7866 3bbe b0d4 11be c734 e23d 7ca3 683e
000002f0: 6083 7e3e 8866 90bd 2cd1 eb3d f25b 153e
00000300: 5fdd 653d f57f 413e a0c5 223e 0565 88be
00000310: b66e 8ebd b609 7bbe 8d06 683d 6680 eb3d
00000320: c3e1 5cbd 7090 33be 610a 4abe d0a9 ee3d
00000330: 1934 3e3e aaf6 a93e 2dac 3ebe db7f 723e
00000340: 1226 df3d 1a84 07bc 354c 8bbe a329 86be
00000350: cfe6 89be 9d55 f7bd 0ae0 893e 0ad3 973e
00000360: 37da a63d 4511 8c3e d2ea 73bd 2b39 92bc
00000370: bfab 64be 0456 033e 82db 04be 2e64 85bd
00000380: 3731 483d fb58 7b3e cc5d a0be faab 0bbc
00000390: 2b33 5a3e 0f1d 16be f0a6 703e e31f 76be
000003a0: a936 5fbe 8f25 953e 0a31 8cbe 456d 3dbd
000003b0: 0d54 0b3e 3da2 173e 7783 e0bb df23 573e
000003c0: 6232 393e 9c59 9a3e 9222 cabb 178b 4abe
000003d0: cc03 d0bc e9c6 b5bc e1be 453e a370 2dbe
000003e0: fb65 793e 6490 f8bd ed90 6c3e 9c28 5ebc
000003f0: 1683 d43d e7aa 7ebe 9027 583e a350 2dbe

linear1.bias f4 [256]
-0.22060682 -0.19772868 0.25165355 0.258395 0.010999694 0.32191533 -0.041198995 0.19990818
0.032597836 0.06809337 -0.07394405 -0.10176972 0.031620402 -0.023288038 -0.15731394 0.3047555
-0.17888603 -0.20128635 0.02824781 0.048240703 -0.16620018 -0.03692832 -0.29653585 0.15891856
0.015661184 0.04106064 0.1321816 -0.21251842 -0.0011643585 -0.12917526 -0.09013498 0.18726781
0.19102466 -0.18949799 -0.3068128 0.05834388 0.23744209 -0.120793685 0.1559369 -0.042225685
0.2093321 -0.07066127 0.17300455 0.037303295 -0.06051408 -0.05575952 -0.21234909 -0.17112835
0.28861287 -0.052883573 -0.046002164 0.12498446 0.11119087 0.2085169 0.0050654653 0.26422808
0.26689354 -0.12727575 0.16871858 -0.13889906 0.0774366 -0.26631242 0.10970746 -0.18885463
0.27692252 -0.25010163 -0.25195605 -0.27840927 -0.18711188 -0.22758803 -0.2536176 0.13572651
-0.09340564 0.059469968 -0.22869965 -0.20199713 -0.053617205 0.14393914 -0.0523304 -0.28418648
0.0047114193 0.19606307 0.10972333 0.025008578 0.21516554 0.14736873 -0.24857259 -0.13823834
-0.1218536 -0.05160424 -0.018710902 -0.0502441 -0.20816487 -0.09599283 0.2785489 0.2377068
-0.28562889 0.3175614 -0.15529978 -0.17187779 -0.12246186 -0.25991708 -0.19078462 0.13805093
0.052597012 -0.08521555 -0.041325174 -0.01086565 -0.19763194 0.14226434 -0.21615836 -0.013432486
0.21281095 0.26321098 0.28061435 -0.16044958 0.14001144 0.17685981 -0.2083413 0.28474268
-0.25607598 -0.27533096 -0.31231555 -0.1396771 -0.18418838 0.23355706 0.3316033 -0.12374542
0.16282052 -0.3193271 -0.20459235 0.2367709 -0.17801881 -0.2612056 -0.22727165 0.020067342
0.28851533 -0.010947275 -0.29164845 0.12892191 0.09238678 0.12497138 0.20070542 2.9192175e-05
0.0015456514 0.10647862 0.17190793 -0.12919241 -0.04058925 0.19076301 0.1808345 0.23686378
-0.022929376 0.21184604 -0.21336421 -0.25562155 0.2675701 0.15314661 -0.19094306 -0.27370587
0.10591359 0.24389827 -0.008738249 0.20003842 -0.08060418 -0.29558972 -0.055147927 0.21343061
0.09989948 0.01951895 -0.031352445 0.00911937 -0.0490798 -0.14338273 0.18942681 -0.2571665
0.20618539 0.05400271 -0.09466014 0.26766548 -0.07191038 -0.054827377 0.19859055 -0.064117156
0.014588553 0.17358437 -0.3403042 -0.2938805 0.24663344 0.042961616 0.12899894 0.13253808
0.27941817 -0.035382517 0.10360326 0.039055277 0.25978306 -0.14010604 -0.29967046 0.26395905
0.044331 0.1611375 0.27054745 0.04587698 0.1999752 -0.082642734 0.09597581 0.1457904
0.11797132 0.041450262 -0.11930044 0.0387644 0.1404547 -0.21129231 -0.10300571 -0.20709817
0.22318886 0.021285556 -0.21671571 -0.25095135 0.23404874 0.22521076 -0.18004823 0.06682567
-0.048959788 0.030529367 0.0965087 -0.082651876 -0.13108356 -0.26987973 0.28354684 0.23090029
-0.12698022 0.028845401 -0.10239155 -0.029157206 0.101796284 0.0045995642 -0.07736624 -0.04711396
0.27094355 -0.0004172324 0.011411125 -0.101031676 -0.17962803 0.023955826 0.28358757 0.03997282
0.22808856 0.20329346 -0.044752214 0.25890774 -0.19841172 0.068142265 -0.22416818 0.027854854
00000000: c1e6 61be 6379 4abe bcd8 803e 594c 843e
00000010: 0f38 343c 16d2 a43e 47c0 28bd bbb4 4c3e
00000020: 4f85 053d 8974 8b3d fa6f 97bd a56c d0bd
00000030: 6584 013d 8ec6 bebc e816 21be ea08 9c3e
00000040: e62d 37be 021e 4ebe f467 e73c 0b98 453d
00000050: 6130 2abe 2642 17bd 8cd3 97be 8cbb 223e
00000060: e24b 803c 342f 283d 9d5a 073e 6e9e 59be
00000070: 639d 98ba 8546 04be b098 b8bd 22c3 3f3e
00000080: f89b 433e c30b 42be 9116 9dbe fef9 6e3d
00000090: 0524 733e ae62 f7bd ecad 1f3e d7f4 2cbd
000000a0: 275b 563e dbb6 90bd 1b28 313e 57cb 183d
000000b0: 9ddd 77bd 1864 64bd 0a72 59be 453c 2fbe
000000c0: 11c5 933e 729c 58bd c46c 3cbd daf7 ff3d
000000d0: 0ab8 e33d 7485 553e 34fc a53b e748 873e
000000e0: 45a6 883e 9354 02be 90c4 2c3e 8e3b 0ebe
000000f0: 1597 9e3d 1a5a 88be 4eae e03d 1c63 41be
00000100: cac8 8d3e 520d 80be 6200 81be a98b 8ebe
00000110: 429a 3fbe d60c 69be 2bda 81be e4fb 0a3e
00000120: 754b bfbd c896 733d 3e30 6abe 56d8 4ebe
00000130: b79d 5bbd c864 133e 6758 56bd e480 91be
00000140: 4062 9a3b c2c4 483e a0b6 e03d cade cc3c
00000150: 5b54 5c3e d4e7 163e d089 7ebe 5a8e 0dbe
00000160: 618e f9bd f85e 53bd 9b47 99bc c2cc 4dbd
00000170: 2c29 55be e497 c4bd f69d 8e3e 6969 733e
00000180: f33d 92be 6897 a23e e806 1fbe bb00 30be
00000190: 49cd fabd da13 85be 0b5d 43be 395d 0d3e
000001a0: f76f 573d 7e85 aebd 9644 29bd d705 32bc
000001b0: 0760 4abe bead 113e 9e58 5dbe ee13 5cbc
000001c0: 1deb 593e 97c3 863e afac 8f3e e54c 24be
000001d0: 295f 0f3e bd1a 353e 6c57 55be cbc9 913e
000001e0: 641c 83be 2ef8 8cbe d3e7 9fbe 8407 0fbe
000001f0: e19b 3cbe 9529 6f3e e8c7 a93e 3d6e fdbd
00000200: 6cba 263e d77e a3be a880 51be 1274 723e
00000210: 904a 36be bebc 85be e6b9 68be 4464 a43c
00000220: 48b8 933e 335c 33bc f252 95be 1b04 043e
00000230: 4835 bd3d fff0 ff3d b985 4d3e b8e1 f437
00000240: 7497 ca3a 7611 da3d a208 303e 044b 04be
00000250: ea40 26bd 6157 433e ae2c 393e 6b8c 723e
00000260: 63d6 bbbc 2bee 583e 267c 5abe d4e0 82be
00000270: f3fe 883e 77d2 1c3e 9486 43be 2d23 8cbe
00000280: 39e9 d83d 78c0 793e df2a 0fbc dfd6 4c3e
00000290: ce13 a5bd 8957 97be cbe2 61bd 8e8d 5a3e
000002a0: 1998 cc3d 34e6 9f3c 6c6b 00bd 6969 153c
000002b0: e607 49bd ecd2 12be 1af9 413e 54ab 83be
000002c0: 4322 533e f231 5d3d 2ddd c1bd 730b 893e
000002d0: c045 93bd ac92 60bd 525b 4b3e db4f 83bd
000002e0: d404 6f3c 1ac0 313e 5a3c aebe 8177 96be
000002f0: 7a8d 7c3e 85f8 2f3d 4c18 043e 10b8 073e
00000300: e60f 8f3e 42ed 10bd f22d d43d 6df8 1f3d
00000310: 4902 853e f577 0fbe 686e 99be a425 873e
00000320: 6c94 353d 3b01 253e 3285 8a3e 80e9 3b3d
00000330: 4dc6 4c3e 9840 a9bd f78e c43d 144a 153e
00000340: f39a f13d c0c7 293d ca53 f4bd 6bc7 1e3d
00000350: 5bd3 0f3e 035d 58be a8f4 d2bd 8b11 54be
00000360: 9f8b 643e 0c5f ae3c b9ea 5dbe b27c 80be
00000370: 79aa 6f3e a69d 663e 905e 38be e6db 883d
00000380: 0f8a 48bd b918 fa3c 5aa6 c53d 6345 a9bd
00000390: c53a 06be ad2d 8abe 0d2d 913e 2071 6c3e
000003a0: 1a07 02be 314d ec3c a9b2 d1bd 18db eebc
000003b0: 927a d03d f1b7 963b 3172 9ebd 91fa 40bd
000003c0: 1db9 8a3e fcbf dab9 baf5 3a3c b2e9 cebd
000003d0: 69f0 37be 023f c43c 6432 913e 8aba 233d
000003e0: 0c90 693e 292c 503e 194e 37bd 8e8f 843e
000003f0: 712c 4bbe 2c8e 8b3d 588c 65be dd2f e43c

linear2.weight f4 [3, 256]
0.008948201 -0.036893293 -0.007825093 -0.07772355 -0.00025052152 -0.08600758 -0.010616308 -0.06523561
0.046978615 -0.06434491 0.029066153 -0.14314635 -0.066468164 0.0044126827 0.042513322 -0.09947778
0.035634287 0.027332334 -0.07928931 -0.046533696 -0.03454462 0.0696025 0.018457869 0.012363963
-0.059402578 0.0443328 0.039375987 0.009596177 0.005295362 -0.061432417 -0.045221865 -0.03050434
-0.0148664825 0.04670991 0.02691796 0.087952025 -0.05512413 0.0080038905 -0.10033684 -0.07896
-0.023031363 -0.051275797 0.01497276 -0.061589547 0.03294017 -0.0367874 -0.013373532 -0.0178659
-0.1054734 0.009043731 -0.030234851 0.0037285984 -0.025624096 0.017079199 0.019671578 -0.08131312
0.07312983 -0.056785893 -0.072788075 0.015259773 -0.022091987 0.030264996 0.030674653 0.038679484
-0.008980878 0.059583157 -0.036533453 0.03662909 0.026617154 0.09452857 -0.006664712 -0.062972896
-0.034290537 0.04960505 -0.008743055 0.00417725 -0.087986015 0.004521293 -0.04509031 -0.02697467
-0.0009504763 -0.024160685 0.023786314 -0.017007088 -0.020225935 -0.010359565 0.058886226 -0.060743418
-0.008744665 -0.0056790845 -0.09471126 -0.038366206 -0.04917231 0.00016606385 -0.0666733 -0.036145646
-0.025585579 -0.0072513614 -0.037782792 -0.056527477 -0.034666207 -0.0075140223 -0.03666976 0.07786474
0.04799994 -0.022992821 -0.033829488 -0.047123905 0.01061691 0.010120677 0.026374064 -0.0855072
-0.1125936 -0.1143351 -0.0533905 -0.09006742 -0.01689162 -0.01118203 -0.02368474 -0.076492354
0.013864892 0.00025792624 -0.00904129 0.03703782 -0.010001444 -0.07930863 -0.062965795 -0.0190476
-0.084932044 -0.011118226 -0.055503692 0.032009736 -0.017981494 -0.060123853 -0.090453714 -0.06889338
-0.09330838 -0.055151705 0.0165332 -0.01826174 0.05003706 0.013550126 -0.056173366 -0.0073236306
-0.0046398886 -0.03786563 -0.043488782 0.05346959 -0.0064163874 -0.0039381427 -0.10309868 -0.078717776
0.045644794 -0.030744236 0.035994094 0.02377833 -0.020116588 -0.06557509 0.026829284 -0.011910935
-0.02748704 -0.050672248 -0.057424147 0.010392038 0.014053836 -2.849965e-06 -0.09152574 -0.04203409
-0.020362541 -0.0028741807 -0.09531146 0.015919626 0.007151529 -0.04763605 0.032011315 0.025094375
0.024647813 -0.013313221 -0.007391884 -0.022314414 0.08175447 -0.08360153 -0.036706906 -0.10404305
0.023808252 0.06942934 0.027229574 -0.01582141 0.013033056 -0.024339858 -0.11542544 -0.04084555
-0.038592014 0.0053072325 -0.01589663 -0.07365784 -0.082012035 -0.042016122 0.008040061 -0.012772775
0.000824897 -0.009452332 -0.016093355 0.022935018 -0.07325934 0.030777067 -0.003016037 0.014284702
-0.004598928 0.023975255 0.031128708 0.025601419 -0.08898037 -0.020749621 -0.005206858 0.060753528
0.0071637267 -0.01823326 -0.014429987 -0.022025477 -0.045844864 -0.0066763484 0.030458445 0.01018308
-0.061768934 -0.024061063 -0.0813335 0.04453139 0.08453111 0.049965404 -0.025905931 0.011284095
0.0015142553 0.0069011655 -0.0012660865 0.09636462 0.0028620935 -0.022017261 -0.029143816 -0.026413148
-0.059376247 -0.048379224 -0.05542581 0.029462997 0.022735586 0.009765617 -0.05720291 0.00340631
-0.106258735 -9.24124e-05 -0.021673968 0.06802364 0.027060373 -0.01040456 -0.07900348 0.015109457
00000000: 7a9b 123c 6c1d 17bd d234 00bc 862d 9fbd
00000010: 6e58 83b9 be24 b0bd 06f0 2dbc 3f9a 85bd
00000020: a66c 403d 44c7 83bd 241c ee3c f594 12be
00000030: 7620 88bd 4498 903b 7322 2e3d 02bb cbbd
00000040: 42f5 113d 0fe8 df3c 6f62 a2bd 1e9a 3ebd
00000050: a97e 0dbd c18b 8e3d f534 973c 3892 4a3c
00000060: 1e50 73bd 4f96 353d b748 213d 4939 1d3c
00000070: b784 ad3b 8fa0 7bbd 903a 39bd 3de4 f9bc
00000080: 8c92 73bc e452 3f3d 0e83 dc3c 3120 b43d
00000090: d7c9 61bd c022 033c 677d cdbd c8b5 a1bd
000000a0: 45ac bcbc 9206 52bd 4f50 753c 5245 7cbd
000000b0: 46ec 063d 62ae 16bd a91c 5bbc 825b 92bc
000000c0: 7002 d8bd 282c 143c 14af f7bc 805b 743b
000000d0: a0e9 d1bc ade9 8b3c 4a26 a13c 7e87 a6bd
000000e0: 18c5 953d 5398 68bd ea11 95bd 2004 7a3c
000000f0: 41fa b4bc 4cee f73c 6949 fb3c 616e 1e3d
00000100: 8824 13bc 780d 743d 1aa4 15bd 6208 163d
00000110: 380c da3c 3298 c13d a863 dabb eff7 80bd
00000120: 3c74 0cbd aa2e 4b3d 083f 0fbc 50e1 883b
00000130: 0332 b4bd 5b27 943b 9eb0 38bd fcf9 dcbc
00000140: 6229 79ba a1ec c5bc 84db c23c 7352 8bbc
00000150: dcb0 a5bc 2abb 29bc af32 713d 17ce 78bd
00000160: c945 0fbc 9d17 babb faf7 c1bd e225 1dbd
00000170: e768 49bd 6d21 2e39 038c 88bd 750d 14bd
00000180: d998 d1bc d49c edbb 21c2 1abd 5b89 67bd
00000190: 27fe 0dbd 3038 f6bb 0833 16bd 8c77 9f3d
000001a0: 969b 443d 715b bcbc ca90 0abd ff04 41bd
000001b0: 8cf2 2d3c 32d1 253c 6c0e d83c 661e afbd
000001c0: 7997 e6bd 8528 eabd ffaf 5abd 4475 b8bd
000001d0: 4b60 8abc d534 37bc 8006 c2bc 06a8 9cbd
000001e0: 9229 633c 463a 8739 eb21 14bc f8b4 173d
000001f0: 19dd 23bc 906c a2bd 36f4 80bd b609 9cbc
00000200: daf0 adbd 3829 36bc d757 63bd a41c 033d
00000210: ed4d 93bc 6e44 76bd cc3f b9bd f917 8dbd
00000220: 7718 bfbd c1e6 61bd a270 873c a599 95bc
00000230: a9f3 4c3d 5901 5e3c 0b16 66bd 11fb efbb
00000240: 350a 98bb fe18 1bbd 4b21 32bd ee02 5b3d
00000250: 8f40 d2bb 890b 81bb 6725 d3bd c936 a1bd
00000260: 09f6 3a3d 56db fbbc 8b6e 133d c6ca c23c
00000270: 8bcb a4bc 3c4c 86bd 16c9 db3c 1526 43bc
00000280: 802c e1bc b48d 4fbd 9535 6bbd 5e43 2a3c
00000290: 1042 663c 0742 3fb6 d971 bbbd f02b 2cbd
000002a0: 58cf a6bc c05c 3cbb a832 c3bd e069 823c
000002b0: 6057 ea3b 051e 43bd 4c1e 033d b892 cd3c
000002c0: 36ea c93c b21f 5abc 9e37 f2bb b8cc b6bc
000002d0: e36e a73d 4737 abbd fb59 16bd 8614 d5bd
000002e0: 8609 c33c f830 8e3d 8e10 df3c e79b 81bc
000002f0: 9988 553c 6264 c7bc 2c64 ecbd aa4d 27bd
00000300: a912 1ebd 4be8 ad3b a639 82bc ecd9 96bd
00000310: edf5 a7bd 1919 2cbd 76ba 033c e744 51bc
00000320: e73d 583a f4dd 1abc 36d6 83bc 38e2 bb3c
00000330: fe08 96bd 3020 fc3c b4a8 45bb 620a 6a3c
00000340: 9bb2 96bb c167 c43c a201 ff3c 11ba d13c
00000350: 573b b6bd 1cfb a9bc 4a9e aabb b1d8 783d
00000360: b2bd ea3b eb5d 95bc c16b 6cbc c66e b4bc
00000370: d3c7 3bbd 45c5 dabb fd83 f93c efd6 263c
00000380: 6c01 7dbd b51b c5bc 2e92 a6bd 8c66 363d
00000390: a61e ad3d 86a8 4c3d ad38 d4bc ede0 383c
000003a0: fa79 c63a 2c23 e23b d0f2 a5ba d05a c53d
000003b0: f691 3b3b 8b5d b4bc 03bf eebc 6360 d8bc
000003c0: 8234 73bd 4b29 46bd 2d06 63bd 625c f13c
000003d0: fb3f ba3c f7ff 1f3c 994d 6abd 663c 5f3b
000003e0: 2e9e d9bd 88cd c1b8 9b8d b1bc fa4f 8b3d
000003f0: b7ad dd3c e377 2abc 94cc a1bd a88d 773c

linear2.bias f4 [3]
-0.045347445 -0.04527385 -0.030292891
00000000: 3ebe 39bd 1371 39bd cc28 f8bc
